best_model.pth (torch, 665954 bytes, 42 tensors)

conv1.weight f4 [32, 3, 3, 3]
0	0x3e10af18	0.14129293
1	0x3e122421	0.14271595
2	0xbd83d5be	-0.064372525
3	0x3e439fed	0.19103976
4	0xbd6bf007	-0.057601955
5	0x3d025043	0.031814825
6	0xbd86ddb5	-0.06585256
7	0x3debb27c	0.115086526
8	0x3e3280d0	0.1743195
9	0xbe0c5fe9	-0.13708462
10	0x3e20998d	0.15683575
11	0x3cbb2921	0.02284676
12	0x3e2ac07b	0.16674988
13	0x3c9b95a1	0.018992247
14	0x3dc051d0	0.093906045
15	0x3c6509aa	0.013979355
16	0x3e263c59	0.16233958
17	0x3d3ad406	0.045612358
18	0xbdfd15d7	-0.12357681
19	0x3b3d985b	0.0028929922
20	0xbe0dcc88	-0.13847554
21	0xbd157316	-0.036486708
22	0xbdfb5cdf	-0.12273573
23	0x3db857a3	0.090010904
24	0xbe1ecbae	-0.15507385
25	0xbdf00fcc	-0.11721763
26	0xbda5d6d6	-0.08097617
27	0xbdffd31a	-0.12491436
28	0x3c808735	0.015689472
29	0xbe57172d	-0.21004935
30	0x3e1fc360	0.15601873
31	0xbe38b9f1	-0.18039681
32	0x3e01aacb	0.12662809
33	0x3ce9f758	0.028560326
34	0xbda0282b	-0.078201614
35	0x3deab5fd	0.11460493
36	0x3d1edbea	0.038783945
37	0x3e2c1ece	0.16808626
38	0x3c8599c4	0.016308673
39	0xbd36c3cd	-0.044620324
40	0x3d75a50d	0.059971858
41	0xbd332732	-0.04373855
42	0x3df476cb	0.119367205
43	0x3e464448	0.19361985
44	0x3e1594fa	0.14607611
45	0xbe07a1ae	-0.1324527
46	0x3d8d4005	0.068969764
47	0xbcc8c02e	-0.0245057
48	0x3d35dd0c	0.04440026
49	0xbe2c5c3a	-0.16832057
50	0xbe768f8d	-0.24078198
51	0xbdebf3db	-0.11521121
52	0xbe4c0107	-0.19922267
53	0x3df1fef7	0.11816209
54	0x3d8de2a6	0.069279954
55	0x3dcdf900	0.100572586
56	0x3d92a431	0.07160223
57	0x3cf887b8	0.030338153
58	0x3e34df30	0.17663264
59	0xbdbdb77b	-0.09263512
60	0x3ca7b4d9	0.020471977
61	0xbe15fcf1	-0.1464727
62	0x3d8d4d5c	0.06899521
63	0xbdb5d722	-0.08878924
64	0x3d38f3c0	0.045154333
65	0xbd8e143a	-0.06937452
66	0x3e0d9dd7	0.13829742
67	0xbe0642e8	-0.1311146
68	0xbe01d7e8	-0.12680018
69	0xbe28f5de	-0.16500041
70	0x3dc5374a	0.09629686
71	0x3c1fdbeb	0.009757022
72	0x3e2c12e3	0.1680408
73	0xbe2d3873	-0.16916065
74	0xbe5e3a42	-0.21701911
75	0xbe14836c	-0.14503258
76	0xbe0b2e15	-0.13591798
77	0x3d8c47fd	0.06849668
78	0x3d596647	0.053076055
79	0x3ddf1e4e	0.10894452
80	0xbe03dc30	-0.12876964
81	0xbabae14e	-0.001425782
82	0x3e3b7a2f	0.18308328
83	0xbd0eb020	-0.034835935
84	0x3e4e00f3	0.2011755
85	0x3d8f2cee	0.069909915
86	0x3e4122e1	0.18860961
87	0xbd40c2a7	-0.047060635
88	0x3d114ac7	0.035471704
89	0x3e1e974e	0.15487406
90	0x3d95cd63	0.07314565
91	0xbd4755ef	-0.048665937
92	0x3d90edc3	0.070765994
93	0x3e04642d	0.12928839
94	0xbdeeca01	-0.11659623
95	0xbdd8787a	-0.10569854
96	0x3e324730	0.17409968
97	0xbd1cf240	-0.038316965
98	0xbd83694d	-0.06416569
99	0xbe3fedbb	-0.1874303
100	0xbe414bf6	-0.18876633
101	0xbd623e88	-0.055235416
102	0xbdd787bc	-0.10523936
103	0xbe5ece1c	-0.21758312
104	0xbdaaa062	-0.08331372
105	0xbe41feeb	-0.189449
106	0xbe5f9ee5	-0.21837957
107	0xbe2932c8	-0.16523278
108	0xbe3c3b31	-0.18381955
109	0xbd50ba56	-0.050958954
110	0x3e6b8778	0.23000896
111	0x3da93d66	0.08263664
112	0x3df75b98	0.12078017
113	0xbcf051e2	-0.02933592
114	0xbd906e66	-0.07052307
115	0x3c9395ef	0.01801583
116	0x3e1a6391	0.15077044
117	0xbe5506ca	-0.20803371
118	0xbd0eb516	-0.034840666
119	0xbd7d1464	-0.061787024
120	0x3c936504	0.017992504
121	0xbca1b492	-0.019739423
122	0x3dc52354	0.09625879
123	0xbdff1c81	-0.124566086
124	0xbdadb5e3	-0.08481958
125	0xbc3b1ad3	-0.01141997
126	0xbe79d620	-0.24398088
127	0xbe3e3c1c	-0.18577617
128	0x3e122b62	0.14274362
129	0xbe2adc8c	-0.16685694
130	0x3da33bfc	0.079704255
131	0x3dc26237	0.09491389
132	0xbe8dbbc9	-0.2768233
133	0x3d7fa46f	0.062412675
134	0xbbcdc9f5	-0.0062801787
135	0xbd31f593	-0.04344709
136	0xbdfecb6b	-0.12441143
137	0xbe1c0b76	-0.15238747
138	0x3d5b0bc3	0.053478014
139	0xbc551284	-0.013004903
140	0x3da865d8	0.0822255
141	0xbe18d6b6	-0.14925656
142	0x3e146e59	0.1449522
143	0xbe0b62bf	-0.13611887
144	0x3b3db62d	0.0028947697
145	0x3d8fdf3d	0.07025001
146	0x3e0484c0	0.12941265
147	0x3e285b36	0.16441044
148	0x3e5192ea	0.204662
149	0xbdf8e11b	-0.121523105
150	0x3d76a724	0.06021799
151	0xbd648082	-0.055786617
152	0xbbe177df	-0.006880745
153	0xbddf2a55	-0.10896746
154	0x3e48d735	0.19613345
155	0xbdca39dd	-0.09874318
156	0x3dd7776d	0.105208255
157	0x3db791e7	0.089633755
158	0x3d98b124	0.07455662
159	0xbdb8c487	-0.090218596
160	0x3e389f56	0.18029532
161	0x3d2ba3a8	0.04190412
162	0x3a7d7fa5	0.00096702046
163	0xbe46ce43	-0.1941462
164	0x3d6d3e51	0.057920758
165	0xbd46c1b1	-0.048524562
166	0xbdb4fa11	-0.08836759
167	0x3e356ff7	0.17718492
168	0x3d0698c7	0.032860544
169	0xbddb0eef	-0.10696208
170	0xbdb42ac0	-0.087972164
171	0xbd454ef5	-0.048171002
172	0x3d64174a	0.055686273
173	0xbdb21377	-0.08695119
174	0xbe0c8eb3	-0.1372631
175	0xbdaf815d	-0.08569596
176	0xbe0edb89	-0.13950934
177	0x3d66e73b	0.056372862
178	0x3e0792f7	0.13239656
179	0xbe31e29b	-0.173716
180	0x3d8d2d5e	0.06893419
181	0x3deba812	0.11506666
182	0x3d7d7859	0.06188235
183	0xbd0882aa	-0.033327736
184	0x3e127721	0.14303257
185	0x3e27e654	0.16396457
186	0x3df0a253	0.11749711
187	0x3c83eb97	0.016103549
188	0x3c7a5cf8	0.015280955
189	0x3d87acfd	0.06624792
190	0xbb97ceab	-0.004632791
191	0xbd2eb7c0	-0.042655706
192	0x3e1bd228	0.15216887
193	0x3e50546c	0.20344704
194	0xbc785e6d	-0.015159232
195	0xbc143fce	-0.009048415
196	0xbbfe1ee3	-0.007755147
197	0x3ac3e6de	0.0014946123
198	0x3d34df40	0.04415822
199	0x3d2bb991	0.041925017
200	0xbe4e420c	-0.20142382
201	0xbdcf52ab	-0.101231895
202	0x3e164edf	0.14678524
203	0x3c5c7366	0.0134552475
204	0xbd692f36	-0.05692979
205	0xbe45be25	-0.19310816
206	0xbe34471e	-0.17605254
207	0xbe12377d	-0.1427898
208	0xbd303b5b	-0.043025356
209	0x3d9a0128	0.07519752
210	0x3e09967c	0.13436311
211	0x3de83ad1	0.11339343
212	0xbe21d0c8	-0.158023
213	0xbd964183	-0.07336714
214	0xbccba01c	-0.02485662
215	0x3e59ee7c	0.21282381
216	0x3d029cb3	0.03188772
217	0xbd2dfae8	-0.04247561
218	0x3dd59472	0.10428704
219	0xbdc01bd9	-0.093803115
220	0xbe2666e4	-0.16250187
221	0x3e1fe18e	0.15613386
222	0xbd92c8ce	-0.07167207
223	0xbd1e6f44	-0.03868033
224	0xbe234f5b	-0.1594824
225	0x3e1c9eea	0.15294996
226	0x3e2b06f1	0.16701867
227	0x3de004f9	0.109384485
228	0xbe0135ea	-0.12618223
229	0xbe5040b3	-0.20337181
230	0xbdefdecf	-0.11712419
231	0x3e3e414f	0.18579601
232	0x3decd57e	0.11564158
233	0x3e5a69fe	0.21329495
234	0x3dc1d8d8	0.09465188
235	0x3d4d2e28	0.050092846
236	0x3cc08294	0.023499765
237	0xbe28bbaf	-0.16477846
238	0xbe47504d	-0.19464226
239	0xbe1c5c79	-0.1526965
240	0x3db9b39c	0.09067461
241	0xbdb72df2	-0.0894431
242	0xb92d8d27	-0.00016551149
243	0x3d52504f	0.05134612
244	0x3d2fa541	0.042882208
245	0xbf940b6e	-1.1565988
246	0xbbbb8f8e	-0.0057239
247	0xbcb55cf2	-0.022139046
248	0x3dc31497	0.095254116
249	0x3d1e9fe2	0.038726695
250	0xbcea9556	-0.028635662
251	0xbc02dd1a	-0.007987285
252	0x3d8774ae	0.06614052
253	0xbd30c149	-0.04315308
254	0xbfa1bc84	-1.2635655
255	0xbd83da96	-0.06438176

conv1.bias f4 [32]
0	0xbde1a7e6	-0.11018352
1	0x3d87aef9	0.0662517
2	0x3dd01bd5	0.101615585
3	0x3d45fecd	0.0483387
4	0x3d41d2bf	0.047320124
5	0xbe669284	-0.22516829
6	0x381d2a00	3.7470832e-05
7	0x3cf8ba9b	0.030362418
8	0x3d060fe0	0.032729983
9	0x3d15ee81	0.03660441
10	0x3b407084	0.002936394
11	0xbdea591a	-0.11442776
12	0x3e00d734	0.12582093
13	0x3bf15e45	0.007365974
14	0x3b9d20bc	0.004795162
15	0x3c4c1a4b	0.012457441
16	0x3c9a78d8	0.01885645
17	0x3d8529c9	0.065021105
18	0x3c411e2e	0.011786981
19	0x3d913c55	0.070915855
20	0x3d5cfc04	0.05395128
21	0x3e15befa	0.14623633
22	0x3da53b66	0.0806797
23	0x3c70e0b2	0.014702009
24	0xbe6ae17c	-0.22937578
25	0xbbe8b6e8	-0.0071018822
26	0x3958011a	0.00020599776
27	0xbdaa9cb8	-0.08330673
28	0x3943e41b	0.00018681625
29	0x3953bb16	0.00020192223
30	0x3dac82a0	0.08423352
31	0x3d10c993	0.035348486

conv2.weight f4 [32, 32, 3, 3]
0	0xbca8ab08	-0.020589367
1	0xbd4f96d4	-0.05068095
2	0x3b16f6ec	0.002303536
3	0x3a3b9322	0.00071554084
4	0x3c9308da	0.017948557
5	0x3d5f3211	0.054491106
6	0x3d9dc811	0.07704175
7	0x3bcab3c7	0.006185982
8	0x3cf65f0e	0.030074622
9	0x3d07a0d5	0.033112366
10	0xbd54d319	-0.05195913
11	0x3d0c9781	0.034324173
12	0x3cb93ce2	0.022612039
13	0xbcbca7bd	-0.023029203
14	0xbbc663e3	-0.006054388
15	0x3da60131	0.08105696
16	0x3d9e92fe	0.0774288
17	0x3d7b6d54	0.06138356
18	0x3d4b81a9	0.0496842
19	0xbcda2b0b	-0.026631853
20	0xbc7ae370	-0.015313014
21	0x3c8e31e5	0.017357776
22	0xba73616b	-0.0009284231
23	0xbc3deedf	-0.011592596
24	0xbd479d8a	-0.048734225
25	0x3c8e6564	0.017382331
26	0xbd1e1285	-0.03859188
27	0xbdbe8403	-0.09302523
28	0x3baafce8	0.005218137
29	0xbd9e01a9	-0.077151604
30	0xbd8c90af	-0.06863534
31	0xbd362822	-0.044471867
32	0xbd1445f3	-0.03619952
33	0x3bde3dcc	0.006782269
34	0x3b56c5e7	0.0032771768
35	0xbdadb49b	-0.084817134
36	0xbde43b74	-0.11144152
37	0xbd6946fa	-0.056952454
38	0xbdc75ba9	-0.0973428
39	0xbca86de7	-0.020560218
40	0x3c384fc6	0.011249488
41	0x3cb61f3e	0.022231694
42	0x3d8283e0	0.063728094
43	0x3d9c8530	0.07642591
44	0x3d2c67b0	0.04209107
45	0xbe240ea9	-0.16021217
46	0xbddbfe15	-0.10741822
47	0xbe2828ca	-0.1642181
48	0xbe9d8605	-0.3076631
49	0xbd656137	-0.056000914
50	0xbe2e53e6	-0.17024192
51	0x3d813b33	0.063101195
52	0x3e20354f	0.15645336
53	0x3def4366	0.11682777
54	0x3c8e4308	0.017365947
55	0xbd0947ac	-0.033515617
56	0xbd4e9fa4	-0.050445214
57	0xbbb686d3	-0.0055702715
58	0xbb12422c	-0.0022317274
59	0x3c6bfd3c	0.0144036375
60	0x3d895eaa	0.06707509
61	0x3d43ed36	0.047833644
62	0x3de67c99	0.11254234
63	0x3c9d912e	0.019234266
64	0xbd46a0ab	-0.04849307
65	0x3bea6abf	0.0071538384
66	0xbd2dbfbe	-0.042419188
67	0x3b2b01bc	0.0026093563
68	0xbc6879a8	-0.014189161
69	0x3ce6733e	0.028131124
70	0x3c820229	0.01587017
71	0xbcc5eb5a	-0.024160076
72	0x3c09eb7a	0.008417958
73	0x3c1ccc23	0.009570154
74	0x3d3558be	0.044274084
75	0x3d20803c	0.039184794
76	0x3cc05e94	0.023482598
77	0xbcb3f97c	-0.02196955
78	0x3dc8700b	0.097869955
79	0x3cd03f0d	0.02542069
80	0x3b8e9803	0.0043516173
81	0x3d51f3b0	0.05125779
82	0x3d2b07ab	0.04175536
83	0x3cae0ced	0.021246398
84	0xbc4648df	-0.012102335
85	0x3d3417fc	0.043968186
86	0x3c1c2fc0	0.009532869
87	0x3d123648	0.035696298
88	0x3d896596	0.06708829
89	0x3a36848b	0.00069624995
90	0xbd5ccec0	-0.05390811
91	0xbd2ef6f1	-0.04271597
92	0xbdb3204e	-0.08746396
93	0xbc292fd1	-0.010326342
94	0x3d6742ea	0.0564603
95	0x3dde5657	0.10856312
96	0x3e69a788	0.22817814
97	0x3e37fd74	0.17967778
98	0x3eb537d1	0.35394147
99	0xbcc7eb94	-0.024404325
100	0xbd6ae309	-0.057345424
101	0x3d40a412	0.04703147
102	0x3da51439	0.08060498
103	0xba9ef930	-0.0012128707
104	0x3e16e50b	0.1473581
105	0x3e05c2f6	0.13062653
106	0x3dddac96	0.10823934
107	0x3e815c3e	0.25265688
108	0xbd50d05d	-0.05097996
109	0xbd8d0936	-0.068865225
110	0xbd362dff	-0.04447746
111	0xbca980c9	-0.020691292
112	0xbcfa1f83	-0.030532604
113	0xbca723b8	-0.020402774
114	0x3b7589cb	0.0037466164
115	0xbd45295b	-0.048135143
116	0xbd25ccf2	-0.040478654
117	0xbe0fc26a	-0.14039007
118	0xbe238229	-0.15967621
119	0xbe018064	-0.12646633
120	0xbe2995dd	-0.16561075
121	0xbe0a3667	-0.13497315
122	0xbe3f8c23	-0.18705802
123	0xbd2c3da4	-0.042050973
124	0xbdd98aa9	-0.106221505
125	0xbe4f82a5	-0.2026468
126	0xbddc744c	-0.10764369
127	0xbc585027	-0.013202704
128	0x3c9b064c	0.018923901
129	0x3d252bf2	0.040325113
130	0x3d7eea6c	0.06223528
131	0x3c89d2c9	0.016824143
132	0x3dc6f922	0.09715487
133	0x3d43c1e8	0.047792345
134	0x3e0ff02a	0.14056459
135	0xbe020bda	-0.12699834
136	0xbdcd5cde	-0.10027479
137	0xbd5624bb	-0.052281123
138	0xbdaf7bb6	-0.08568518
139	0xbd8fc99d	-0.070208766
140	0xbd9154c4	-0.07096246
141	0xbe1391b6	-0.14411053
142	0xbe21ec2e	-0.15812752
143	0xbe0e1361	-0.1387458
144	0xbd14b8f0	-0.036309183
145	0x3d9cf30b	0.07663544
146	0xbbae96e6	-0.005328047
147	0x3ca45f33	0.020064926
148	0x3b4ec88b	0.0031552638
149	0x3c0c9188	0.008579619
150	0x3d35dac4	0.044398084
151	0x3cdec711	0.027194532
152	0x3d2dd09d	0.042435277
153	0x3ba2d277	0.004968937
154	0x3de6a1be	0.112613186
155	0x3d0c49da	0.034250118
156	0x3c1b2d9d	0.009471324
157	0x3c0cbe96	0.008590361
158	0x3db6ad7c	0.08919808
159	0x3dc15185	0.09439377
160	0x3d3d6924	0.046242848
161	0x3cab38df	0.020901142
162	0xbdc4364a	-0.09580667
163	0xbd9ac3b7	-0.07556861
164	0xbdabefa7	-0.083953194
165	0xbd69196d	-0.056909014
166	0xbc1132df	-0.008862226
167	0xbcb91c33	-0.022596454
168	0xbd97668b	-0.073926054
169	0xbb3047f4	-0.0026898356
170	0xbd243f16	-0.040099226
171	0x3d157b94	0.036494806
172	0x3d408da1	0.047010068
173	0x3d77cb67	0.060496714
174	0x3d5ba5fa	0.053625084
175	0x3d28f0a3	0.041245114
176	0x3d14649b	0.036228757
177	0x3d571b9f	0.052516576
178	0x3c1287fa	0.008943552
179	0x3d8bdd51	0.06829322
180	0xbcd4e9e1	-0.025990428
181	0xbc80229c	-0.015641503
182	0xbd41e30a	-0.047335662
183	0xbccc859e	-0.024966057
184	0xbcf028ad	-0.02931627
185	0xbcf34598	-0.02969627
186	0xbd1c77f3	-0.03820033
187	0xbd410947	-0.04712799
188	0xbc831666	-0.016001891
189	0x3d5c7c08	0.053829223
190	0x3d88b772	0.066756144
191	0x3d76fb95	0.06029852
192	0xbbd04821	-0.0063562547
193	0xbd0919fd	-0.03347205
194	0x3d36d1db	0.044633728
195	0x3d40b1d3	0.047044586
196	0xbd10c88d	-0.03534751
197	0x3d03c5f9	0.032171223
198	0x3d8d0cef	0.068872325
199	0x3ca19dba	0.01972853
200	0xbc4346b4	-0.011918712
201	0x3d890c67	0.06691819
202	0x3d4ad961	0.049523715
203	0x3d6243eb	0.055240553
204	0xbcc2abf1	-0.023763629
205	0x3d8d33a3	0.068946145
206	0xbbbb06a6	-0.0057075797
207	0x3bc84d7e	0.0061127534
208	0x3cbba94c	0.022907875
209	0xbba4e8ee	-0.00503265
210	0x3d5a069b	0.053228956
211	0xbc2d3315	-0.010571261
212	0xbd3729b0	-0.04471749
213	0x3d079457	0.033100452
214	0xbdc282c8	-0.09497601
215	0xbdd3c4e8	-0.10340291
216	0xbd62103f	-0.055191275
217	0xbd6e2196	-0.0581375
218	0xbdeec07e	-0.11657809
219	0xbd99c302	-0.07507898
220	0xbd49662e	-0.04916971
221	0x3d73999b	0.05947266
222	0x3e01f544	0.12691218
223	0x3da28ebf	0.07937383
224	0x3d9ffec1	0.07812262
225	0xbd927785	-0.07151703
226	0xbcab549b	-0.020914366
227	0xbce98ca3	-0.028509444
228	0x3d174ad6	0.036936603
229	0xbd892f3f	-0.066984646
230	0x3ca8ef6d	0.02062198
231	0x3cf95026	0.030433726
232	0xbbdedd94	-0.0068013165
233	0xbb691e90	-0.0035571195
234	0xbc99bf2f	-0.018767921
235	0x3dae89ed	0.08522401
236	0x3caa96ca	0.020823855
237	0x3d1bd613	0.038045954
238	0x3db35e0d	0.08758173
239	0x3a82d19a	0.0009980679
240	0x3d1ec193	0.038758826
241	0x3dcaca3a	0.09901853
242	0x3ce77b33	0.028256988
243	0xbd9ae221	-0.07562662
244	0xbd8bb072	-0.06820764
245	0xbc339094	-0.010959763
246	0x3d8424bd	0.0645232
247	0xbcccc99b	-0.024998477
248	0x3cf149ec	0.029454194
249	0x3d4cb20c	0.049974486
250	0x3d9c0354	0.07617822
251	0x3cb73dc4	0.02236832
252	0x3c87ce12	0.016577754
253	0xbde7f375	-0.113257326
254	0xbd120324	-0.035647526
255	0x3db4922f	0.08816945

conv2.bias f4 [32]
0	0xbd2d3138	-0.042283267
1	0x3d91fbc3	0.07128098
2	0x3d163496	0.036671244
3	0xbcfc69cb	-0.030812165
4	0x3d816448	0.06317955
5	0xbd28222c	-0.041048214
6	0x3cff7a7c	0.031186335
7	0x3d2af7b6	0.04174014
8	0x3d0b738f	0.034045752
9	0x3d2a5447	0.04158428
10	0xbd3eba1b	-0.046564203
11	0xbc28a692	-0.01029362
12	0x3c3756c6	0.011190122
13	0xbae23d98	-0.0017260788
14	0x3d9100d7	0.07080238
15	0x3cd20ff4	0.025642373
16	0x3c1b7c99	0.009490156
17	0xbc259a23	-0.01010755
18	0xbb0dbd14	-0.0021627592
19	0x3d31c212	0.04339797
20	0x3cb0ecf9	0.021597372
21	0x3d31f960	0.043450713
22	0xbcca4057	-0.024688883
23	0xbb986918	-0.0046512
24	0x3d173c6b	0.036922853
25	0x3c57e378	0.013176791
26	0xbccc7ffb	-0.02496337
27	0x3ce9d744	0.02854503
28	0x3c4145e7	0.011796451
29	0x3cd0d582	0.025492433
30	0x3cd97612	0.026545558
31	0xbc3df1e5	-0.011593317

conv3.weight f4 [32, 32, 3, 3]
0	0xbd33f51d	-0.04393493
1	0xbc123bbb	-0.008925374
2	0x3c25d1d3	0.010120827
3	0x3ba3596f	0.0049850265
4	0x3ce0a551	0.027422579
5	0x3c25ed6c	0.010127407
6	0x3ca890bb	0.020576825
7	0x3c944734	0.018100359
8	0x3d077b23	0.033076417
9	0x3c84bca7	0.016203238
10	0x3cbd5586	0.02311207
11	0x3cb6e9d6	0.022328299
12	0x3ccca298	0.024979874
13	0x3ce2b632	0.027674768
14	0x3cc4bb36	0.02401505
15	0x3d4cc688	0.04999402
16	0x3d136dc5	0.035993356
17	0x3cd7b03b	0.02632915
18	0xbd3a3625	-0.045461792
19	0xbd190dde	-0.03736674
20	0xbd34d8bd	-0.04415201
21	0xbc82e1c9	-0.015976803
22	0xbcbb0bf7	-0.022832854
23	0xbd38f0c3	-0.045151483
24	0xbb90ff5e	-0.0044249734
25	0xbca4ae86	-0.02010275
26	0xbd782a2c	-0.060587093
27	0x3c852cd8	0.016256735
28	0x3ca9b0ef	0.020714251
29	0x3c8d6e5d	0.01726454
30	0x39f3fd86	0.00046537461
31	0x3c30f1d9	0.0107998485
32	0x3c31ebc5	0.0108594345
33	0xbc0bcaee	-0.008532269
34	0xbbbe0269	-0.005798627
35	0xbc22c35f	-0.009934275
36	0x3c81bbe4	0.015836664
37	0x3c5f9ebb	0.013648684
38	0x3cb1fca6	0.021726917
39	0x3c75f93e	0.015013037
40	0x3c2b9e0f	0.010474696
41	0x3cbec9c9	0.023289578
42	0x3c054a48	0.008135386
43	0x3b28cc88	0.0025756676
44	0x3b8595ec	0.00407671
45	0xbd2f5606	-0.042806648
46	0xbd4361ab	-0.047700565
47	0xbd713f35	-0.05889817
48	0xbd02f5ac	-0.031972572
49	0xbd100f29	-0.035170708
50	0xbd3a1f2e	-0.04543989
51	0xbcf9f350	-0.030511528
52	0xbd0b8cf2	-0.034069963
53	0xbd2da92d	-0.042397667
54	0xbbc6ce3e	-0.0060670665
55	0xbc8aecb9	-0.016958581
56	0xbcbb9290	-0.022897035
57	0xbc0d63ba	-0.008629734
58	0xbd392e81	-0.045210365
59	0xbd07f449	-0.033191953
60	0xbb5845e0	-0.0033000633
61	0xbd6bc22f	-0.057558235
62	0xbd494c85	-0.04914524
63	0x3c134de1	0.008990736
64	0xb9b8d14d	-0.00035251156
65	0xba842577	-0.0010081966
66	0x3cb44176	0.02200387
67	0x3ca9ea54	0.02074162
68	0x3c3526fb	0.011056657
69	0x3c8353b2	0.01603112
70	0x3c6af579	0.014340752
71	0x3bef63fa	0.0073056193
72	0x3d907a80	0.07054615
73	0x3daba482	0.08380987
74	0x3d85b794	0.065291554
75	0x3d20eee3	0.03929032
76	0x3d48a7e8	0.048988253
77	0x3d0df538	0.034657687
78	0x3b4015d6	0.002930989
79	0x3a254238	0.0006304118
80	0xbc624a47	-0.013811654
81	0x3bf909e1	0.0076000546
82	0x3c06fd5e	0.008239118
83	0x3c459a5d	0.012060729
84	0xbb494c03	-0.0030715473
85	0xbc4566bb	-0.012048419
86	0xbc2be48e	-0.010491503
87	0x3c390f2d	0.011295122
88	0xbc0554fd	-0.008137939
89	0xbc8c8e6a	-0.017157752
90	0x3dc5541b	0.096351825
91	0x3d89f30b	0.0673581
92	0x3ca1a99e	0.0197342
93	0x3ce223bc	0.02760493
94	0x3d1eb946	0.03875091
95	0xbd62fc6c	-0.05541651
96	0xbdac3687	-0.08408838
97	0xbd378313	-0.044802736
98	0xbd333bee	-0.043758325
99	0xbd877b07	-0.066152625
100	0xbd099b9f	-0.033595677
101	0xbd88e09f	-0.06683468
102	0xbce36f1a	-0.027762938
103	0x3d19a6eb	0.0375127
104	0xbbe3948c	-0.0069451984
105	0xbda8557c	-0.0821943
106	0xbd17463a	-0.036932208
107	0xbdd8fcd2	-0.10595097
108	0xbcfc689b	-0.030811599
109	0x3cd3af6b	0.025840482
110	0xbd16d5e3	-0.036825072
111	0x3bca0e86	0.006166282
112	0x3c547978	0.0129684135
113	0xbdac7293	-0.08420291
114	0xbd80a479	-0.06281371
115	0xbc995e71	-0.018721791
116	0xbdcfbc82	-0.10143377
117	0xbd1aeab0	-0.03782147
118	0xbb8a70ad	-0.004224858
119	0x3d4ea077	0.050446
120	0xbd19afd3	-0.037521195
121	0xbd10a6e0	-0.035315394
122	0x3c6d547b	0.014485474
123	0xbbef9306	-0.0073112277
124	0xbc62d36f	-0.013844355
125	0xba7c1f39	-0.00096176896
126	0xbbe63f67	-0.007026601
127	0xbc82bb53	-0.015958464
128	0xbc589408	-0.013218887
129	0xbc614e11	-0.013751523
130	0xbc269100	-0.010166407
131	0xbb3405ab	-0.0027469199
132	0xbb93a097	-0.004505228
133	0xbb8e22d7	-0.0043376493
134	0xba687eb5	-0.00088689785
135	0x3baede50	0.0053365603
136	0x3c0ff321	0.008785994
137	0xbb442f9b	-0.0029935602
138	0x3b34b1d1	0.0027571807
139	0x3bf3d484	0.0074411053
140	0xba81a29a	-0.0009890378
141	0x3b15e09f	0.002286948
142	0x3c2e5f02	0.010642769
143	0x3aac42cc	0.0013142466
144	0xbca4b4b7	-0.020105703
145	0xbbec19c2	-0.007205219
146	0xbc7dbfcf	-0.015487625
147	0x3bc300b1	0.00595101
148	0x3b2476a2	0.0025095125
149	0xbc257317	-0.01009824
150	0xbd5d06ed	-0.053961683
151	0xbdb1c66b	-0.08680423
152	0xbc1f8049	-0.009735175
153	0x3d1d2fd1	0.03837568
154	0x3ada4df7	0.0016655315
155	0x3d7d7427	0.06187835
156	0x3cbdc5a0	0.023165524
157	0x3d14ecee	0.036358766
158	0x3d854588	0.06507403
159	0xbbe21791	-0.006899782
160	0x3d25d318	0.040484518
161	0x3b53680c	0.0032258062
162	0x3d4ea327	0.050448563
163	0x3c0aba98	0.008467339
164	0x3cc4b330	0.024011225
165	0x3d3b211a	0.045685865
166	0xbc506569	-0.012719491
167	0xbd166d2a	-0.0367252
168	0xbc6526d6	-0.01398631
169	0xbdabdcb3	-0.083917044
170	0xbd8c508e	-0.06851302
171	0xbb8f017d	-0.004364191
172	0x39cb416f	0.0003876793
173	0xbc817ce4	-0.015806623
174	0x3cf678de	0.03008693
175	0x3cb76fc6	0.022392165
176	0x3c1ee362	0.009697767
177	0x3c0a3c8e	0.008437289
178	0xba0de440	-0.0005412735
179	0x3bfdfaef	0.007750861
180	0x3c96417c	0.018341772
181	0x3ba88161	0.0051423763
182	0x3c40fafc	0.011778589
183	0x3a8f9f20	0.0010957457
184	0xbcdaf873	-0.026729798
185	0xbc397bc3	-0.011321011
186	0x3ba1caad	0.004937491
187	0xbc4cec44	-0.012507502
188	0xbc6ffa17	-0.014647028
189	0xbd005e9b	-0.031340223
190	0xbc67329b	-0.014111186
191	0xbd0ad856	-0.03389772
192	0x3cfa899e	0.0305832
193	0xbc6e4f48	-0.014545269
194	0xbd32abac	-0.04362075
195	0xbd635fa4	-0.055511132
196	0xbc9d2901	-0.019184591
197	0xbc9fe7d2	-0.01951972
198	0xbd0cebc7	-0.034404542
199	0xbc842736	-0.016131978
200	0x3d12c31c	0.035830602
201	0xbd0f8d6c	-0.03504698
202	0xbc83f65f	-0.01610869
203	0x3d5c083c	0.05371879
204	0xbb354198	-0.0027657505
205	0x3baaf9df	0.0052177752
206	0x3d1c67fc	0.038185105
207	0x3c736ce5	0.014857505
208	0x3bdb0755	0.0066842237
209	0xbaf59dc7	-0.0018739038
210	0x3c664188	0.01405371
211	0x3c1ed9b0	0.009695455
212	0x3b650232	0.0034943935
213	0x3badeaf1	0.005307548
214	0xbacd807d	-0.0015678551
215	0xbbe9cf0e	-0.0071352785
216	0xbd53617f	-0.05160665
217	0xbd0e1a90	-0.0346933
218	0xbcfeeb4c	-0.031118058
219	0xbcf590f4	-0.029976346
220	0xbcb7885c	-0.022403888
221	0xbd327749	-0.04357079
222	0xbca56aa7	-0.020192457
223	0xbc8c90dc	-0.017158918
224	0xbcbc3eb8	-0.022979125
225	0xbd59919e	-0.053117387
226	0xbd72fcdb	-0.059323173
227	0xbdafdcf7	-0.085870676
228	0x3aa560f0	0.0012617391
229	0xbc2d25c3	-0.010568085
230	0xbd39ea31	-0.045389358
231	0xbc50e7b9	-0.0127505595
232	0xbd78d76b	-0.060752314
233	0xbdaa9d87	-0.08330827
234	0x3ce55d37	0.02799855
235	0x3d255039	0.04035971
236	0x3c5619bf	0.013067662
237	0xbb87f456	-0.004149
238	0x3cb42e7b	0.02199482
239	0xbb6df3f8	-0.0036308747
240	0xbbecf1da	-0.0072309794
241	0x3bd1a0a8	0.0063973255
242	0xbc15967e	-0.009130118
243	0x3e0228b3	0.12710838
244	0x3dbdb40a	0.09262855
245	0x3d8820e0	0.066468954
246	0x3dafbbd8	0.0858075
247	0x3d7eeca5	0.0622374
248	0x3d934d2f	0.07192456
249	0x3d4b9c0b	0.04970936
250	0x3d44d14a	0.048051156
251	0x3d854beb	0.06508621
252	0x3d1855a3	0.037191045
253	0x3d16f6ff	0.036856648
254	0x3d013299	0.031542394
255	0x3cc92091	0.024551662

conv3.bias f4 [32]
0	0xbbb8b2f8	-0.005636569
1	0x3d2be35a	0.041964866
2	0x3cbe85f2	0.02325723
3	0x00001037	5.817e-42
4	0x3b9b07a1	0.004731134
5	0xb702c76e	-7.795037e-06
6	0x3c1f47d3	0.009721714
7	0x3cecdfa3	0.028915232
8	0x3d2fbb01	0.04290295
9	0x3c3b9eca	0.0114514325
10	0xbbafb893	-0.005362579
11	0xbcb263be	-0.021776076
12	0xbc896312	-0.016770873
13	0x3ba6e905	0.005093696
14	0xbb1e8d91	-0.0024193267
15	0x3cc2873c	0.023746125
16	0x8000895d	-4.9277e-41
17	0x3d3c6489	0.045994315
18	0x3d37766c	0.04479067
19	0x3ccb36f6	0.02480648
20	0x3cd35e78	0.025801882
21	0xbc2a4fde	-0.010395018
22	0xbdc87079	-0.097870775
23	0x3d332d39	0.0437443
24	0x3ccda548	0.025103226
25	0x3cf12f9b	0.029441645
26	0x3d055c99	0.03255901
27	0x3a91c0df	0.0011120102
28	0xbb6e7344	-0.0036384622
29	0x3d565a3f	0.05233216
30	0xbca88ae1	-0.020574035
31	0x3cab2cf7	0.020895464

conv4.weight f4 [32, 32, 3, 3]
0	0x3c70e581	0.0147031555
1	0x3c32e865	0.010919665
2	0x3c3d6c37	0.011561445
3	0x3c846510	0.016161472
4	0x3c0034cd	0.007825089
5	0xb9bee5f5	-0.00036410955
6	0x3d05bad4	0.032648876
7	0x3cd2423d	0.02566635
8	0x3ca13e22	0.019682948
9	0xbd702798	-0.05863151
10	0xbce9a899	-0.028522776
11	0x3cec4b08	0.028844371
12	0xbd9942e3	-0.07483461
13	0xbd4d1509	-0.05006889
14	0x3d2285c1	0.03967834
15	0xbd898667	-0.06715088
16	0xbc736c5e	-0.01485738
17	0x3c248990	0.010042563
18	0xbdcc19d8	-0.09965867
19	0x3c657901	0.0140059
20	0x3cc9c6d2	0.024630938
21	0xbd70b832	-0.058769412
22	0x3cfda6a4	0.03096325
23	0x3d160748	0.036628038
24	0xbdb00e69	-0.085964985
25	0x3cd66185	0.026169548
26	0x3c8007aa	0.015628655
27	0x00008909	4.9159e-41
28	0x00008959	4.9271e-41
29	0x00008964	4.9286e-41
30	0x000089ea	4.9474e-41
31	0x000088eb	4.9117e-41
32	0x80008b60	-4.9998e-41
33	0x00008993	4.9352e-41
34	0x000088fe	4.9144e-41
35	0x00008921	4.9193e-41
36	0xbc1e426a	-0.009659389
37	0x3d46fb58	0.048579544
38	0x3d884714	0.06654182
39	0xbc9b5bbb	-0.018964639
40	0xbd4581dd	-0.04821955
41	0x3d326b70	0.04355949
42	0xbbdaf8d4	-0.0066824947
43	0x3d3e8a1d	0.046518434
44	0x3c3dd6f7	0.011586896
45	0x000088f5	4.9131e-41
46	0x000089a1	4.9372e-41
47	0x0000894c	4.9253e-41
48	0x00008916	4.9177e-41
49	0x000088f0	4.9124e-41
50	0x00008923	4.9195e-41
51	0x000089c2	4.9418e-41
52	0x000089a3	4.9375e-41
53	0x00008956	4.9267e-41
54	0x3dc71214	0.09720245
55	0x3d5e3e4a	0.054258622
56	0xbda10542	-0.07862331
57	0x3db6816d	0.08911405
58	0x3bdb4e30	0.0066926703
59	0xbdbb905d	-0.091583945
60	0xbd279f0c	-0.040923163
61	0xbdbeb113	-0.09311118
62	0xbe3955bd	-0.18099113
63	0xbdad6b38	-0.08467716
64	0xbca11ccf	-0.019667057
65	0xbc93e4b9	-0.0180534
66	0xbd46b63d	-0.04851364
67	0xbc87fffe	-0.016601559
68	0x3ca1e63f	0.01976311
69	0x3c8ef13a	0.01744901
70	0x3d3b2a86	0.04569485
71	0x3dbcc1b2	0.09216632
72	0xbcfb72be	-0.030694362
73	0xbccf702d	-0.025322044
74	0xbb8ffd4e	-0.00439421
75	0x3cd59217	0.026070638
76	0xbd73fe36	-0.059568606
77	0x3c67ffbb	0.014160092
78	0x3d28d4c6	0.04121854
79	0xbd77d869	-0.06050912
80	0x3ca7e4c3	0.020494824
81	0x3d628aab	0.055308025
82	0x3d34cec2	0.044142492
83	0x3b7904b3	0.0037997186
84	0x3d55eb52	0.052226372
85	0xbd2a17c9	-0.04152659
86	0xbccc3419	-0.024927186
87	0x3d2ef451	0.042713467
88	0xbc658c1d	-0.014010456
89	0x3d47a195	0.04873808
90	0xbb3b10bf	-0.0028543917
91	0xbd366cc3	-0.044537317
92	0xbd319535	-0.043355186
93	0x3bfdc07d	0.0077438937
94	0xbd49e81a	-0.049293615
95	0x3d294273	0.041323137
96	0x3d60f386	0.054919742
97	0x3ce22227	0.027604176
98	0xbcf8988a	-0.030346174
99	0xbdbca7ae	-0.0921167
100	0xbd8a8cd5	-0.06765143
101	0xbdf0939d	-0.11746905
102	0xbd16b951	-0.036797825
103	0xbbef89e7	-0.0073101404
104	0xbd5067f5	-0.05088039
105	0xbd847093	-0.06466784
106	0xbca3d6eb	-0.019999942
107	0xbd820761	-0.06349064
108	0x3d1f14ad	0.038838077
109	0x3cda3d70	0.026640624
110	0x3ca7e07e	0.020492788
111	0x3c8c52db	0.017129352
112	0x3c856874	0.016285159
113	0x3c99be69	0.018767552
114	0x3cee4def	0.029089896
115	0xbcfc4a97	-0.030797286
116	0x3d642d28	0.055707127
117	0xbd674f17	-0.05647191
118	0x3c3c135c	0.011479225
119	0xbd05a376	-0.03262659
120	0xbd41ebea	-0.047344126
121	0xbcf4dba2	-0.029889885
122	0x3d16868c	0.036749408
123	0x3da75571	0.081705935
124	0x3c63d5bf	0.0139059415
125	0x3d9426ee	0.07233988
126	0x3ba58d82	0.0050522694
127	0x3c1619cd	0.009161425
128	0x3da0a202	0.078434005
129	0x3cbc0327	0.022950722
130	0x3cba1f08	0.022719875
131	0x3d69ce13	0.057081293
132	0x3d184797	0.03717765
133	0xbc8197b9	-0.015819417
134	0x3d0f6e6e	0.035017423
135	0x3cb91389	0.022592323
136	0x3cadd02c	0.021217428
137	0x3d98fbab	0.07469877
138	0x3cd6cc57	0.026220484
139	0xbd422723	-0.047400605
140	0x3c2e3028	0.0106315985
141	0x3d87bdaa	0.066279724
142	0x3d9c4ae9	0.076314755
143	0x3db505cd	0.08838997
144	0x000088cd	4.9075e-41
145	0x0000897d	4.9322e-41
146	0x000088c6	4.9065e-41
147	0x000089a2	4.9373e-41
148	0x80008c3b	-5.0305e-41
149	0x80008983	-4.933e-41
150	0x80008cc7	-5.0501e-41
151	0x80008b8e	-5.0063e-41
152	0x80008c57	-5.0344e-41
153	0x3d27821b	0.040895563
154	0x3d92a01b	0.07159444
155	0x3c5fda33	0.013662863
156	0xbac3cad3	-0.0014937766
157	0x3c78cb11	0.015185134
158	0xbd34bf75	-0.0441279
159	0x3cd9bb56	0.026578587
160	0x3b402660	0.0029319748
161	0x3ce920c9	0.028458016
162	0x3d884d89	0.06655414
163	0x3d567894	0.052361086
164	0x3ca20ef8	0.019782528
165	0x3c2b53cd	0.010456991
166	0x3ce52d13	0.027975595
167	0x3d25fb34	0.04052277
168	0x3de5b8ed	0.112169124
169	0x3ddd73cb	0.108131014
170	0x3df0ebeb	0.11763748
171	0x3dbce251	0.09222854
172	0x3cb55765	0.0221364
173	0x3d5853b9	0.05281422
174	0xbd16c5d5	-0.03680976
175	0xbd489ee0	-0.04897964
176	0x3894a234	7.0874026e-05
177	0xbc794537	-0.015214256
178	0xbd165ef6	-0.036711656
179	0xbc34439a	-0.011002446
180	0x3de7f4ba	0.11325975
181	0x3d69cd54	0.05708058
182	0xbbf639d6	-0.007514219
183	0x3d3347d0	0.043769658
184	0x3bd26e8c	0.0064218696
185	0xbc6fcfb0	-0.014636919
186	0x3d9ef5c2	0.07761718
187	0x3c2315c9	0.009953924
188	0x3d8aa88d	0.0677043
189	0x3d50e8a1	0.051003102
190	0xbb8a9836	-0.0042295707
191	0x3cc72d23	0.024313515
192	0x3cf28d1f	0.029608307
193	0xbcb182eb	-0.021668872
194	0x3c9cc0e1	0.01913494
195	0x3d65322c	0.05595605
196	0xba53a2c7	-0.0008073267
197	0x3cd1c79d	0.025607878
198	0x3c747670	0.014920816
199	0x3c6faa98	0.014628075
200	0x3c69e2cd	0.014275265
201	0x3bdae743	0.0066804006
202	0x3bd2c766	0.0064324616
203	0x3bcee7b8	0.006314244
204	0xb7bb7c1e	-2.2349934e-05
205	0xb8c5010c	-9.393887e-05
206	0xb910eb58	-0.00013820583
207	0x3dad0009	0.08447272
208	0x3d326927	0.043557312
209	0x3d7c600b	0.06161503
210	0x3aec3171	0.0018020106
211	0xbc8db585	-0.01729847
212	0x3d5b403e	0.053528063
213	0x3db467fc	0.08808896
214	0x3bed840e	0.007248408
215	0x3d41e016	0.047332846
216	0xbc94c4a3	-0.01816017
217	0x3d5ced87	0.05393746
218	0xb9cfb3b9	-0.0003961602
219	0xbd22c53b	-0.039738875
220	0xbc9c67bd	-0.019092435
221	0x3d31f994	0.043450907
222	0xbd4822f4	-0.04886146
223	0xbd233c10	-0.039852202
224	0x3caa4954	0.020786919
225	0xbcde8d5d	-0.027167017
226	0x3ce99e12	0.028517757
227	0x3b9c778a	0.0047749924
228	0x3d84727e	0.0646715
229	0xbc4381e4	-0.011932824
230	0xbd021022	-0.031753667
231	0xbafc69d7	-0.0019257617
232	0x3cd0d8a0	0.02549392
233	0x3c039be3	0.008032772
234	0x3db795c2	0.08964111
235	0xbcf6bcf6	-0.0301194
236	0xbc94f476	-0.018182974
237	0x3d063cec	0.032772943
238	0xbccf26a3	-0.025286978
239	0x3d2720cb	0.04080276
240	0x3d594b47	0.053050306
241	0x3d10f71b	0.03539191
242	0x3d8e0f2d	0.06936488
243	0xbdb09847	-0.086227946
244	0xbd4f7d8e	-0.050656848
245	0xbd617d0a	-0.055050887
246	0xbd9ace81	-0.07558919
247	0xbd1178fa	-0.035515763
248	0xbcf54149	-0.029938357
249	0xbd8ab76b	-0.067732655
250	0xbcf671f0	-0.030083627
251	0xbc4c5766	-0.012472009
252	0xbdf53e0b	-0.119747244
253	0xbdb899c4	-0.090137035
254	0xbe65a95b	-0.22427885
255	0x3c17cc6b	0.009265046

conv4.bias f4 [32]
0	0x3cd42bf4	0.025899865
1	0x3cdaba4b	0.02670016
2	0x3c3f9b0a	0.011694679
3	0x3d3aabeb	0.04557411
4	0xbc7e7512	-0.015530841
5	0xbc7d6671	-0.0154663185
6	0x00008975	4.931e-41
7	0xbd1dfb25	-0.03856959
8	0xbabe3285	-0.0014510906
9	0x3cdf500a	0.027259845
10	0xbc040d63	-0.008059832
11	0x3d101876	0.035179578
12	0x3cc36175	0.023850182
13	0x3ce80f5b	0.028327635
14	0xb9a29153	-0.00031007323
15	0x3cfd0486	0.030885946
16	0x8000a9cc	-6.0912e-41
17	0xbcd7c1cd	-0.026337529
18	0x3c286a3a	0.010279233
19	0xbb4e3dca	-0.0031469935
20	0x3d026f4b	0.03184442
21	0x3c259cf2	0.010108219
22	0xbbec8421	-0.0072178994
23	0x3c9c71f2	0.019097302
24	0xbcb59703	-0.022166735
25	0xbc176fbf	-0.009242951
26	0x3c8cfa99	0.017209338
27	0x3c4654fa	0.012105221
28	0x3d155ad3	0.03646357
29	0xbc46cf11	-0.012134329
30	0x3c175cc6	0.0092384275
31	0x3d2a4932	0.04157371

conv5.weight f4 [32, 32, 3, 3]
0	0x3d9b98b4	0.07597485
1	0xbca2a87b	-0.019855728
2	0xbc3c4098	-0.01149001
3	0x3c9c67f7	0.019092543
4	0x3c0eecf9	0.008723491
5	0x3ca586d5	0.020205894
6	0x3ca4ac00	0.020101547
7	0x3a168737	0.00057421945
8	0x3be27d63	0.00691192
9	0xbca859fa	-0.020550717
10	0x3bff7ef1	0.007797115
11	0x3d48a28c	0.04898314
12	0xbb81f428	-0.0039658733
13	0x3c22ecfc	0.009944197
14	0x3d8ba130	0.068178535
15	0x3d9c79d3	0.076404236
16	0x3dd5da6c	0.10442051
17	0xbc854e8e	-0.01627281
18	0xbd2d83db	-0.042362075
19	0xbcef1463	-0.029184526
20	0xbd14ae08	-0.03629878
21	0x3a9cd897	0.0011966404
22	0xbbb8fc1f	-0.0056452896
23	0xbd8c1d1b	-0.06841489
24	0x3d7ad009	0.061233554
25	0x3d621292	0.05519349
26	0xbd701f20	-0.058623433
27	0xbd5cab5b	-0.053874355
28	0xbd4dce28	-0.050245434
29	0x3e08f51b	0.1337475
30	0x3c29c50f	0.010361924
31	0xbd2dcaa3	-0.042429578
32	0x3ddefdd1	0.108882554
33	0x3dbd326e	0.09238134
34	0x3df4017b	0.11914345
35	0x3d54e110	0.05197245
36	0xbc8649dd	-0.016392643
37	0xbd31965e	-0.043356292
38	0x3ca1f500	0.019770145
39	0x3c035dfb	0.008018012
40	0x3d126aab	0.035746258
41	0x3d36a681	0.044592384
42	0x3d9510a9	0.07278568
43	0xbc9fc4bf	-0.019502996
44	0xbce14cb5	-0.027502397
45	0x3bfcc628	0.0077140518
46	0x3b98cb2c	0.004662892
47	0x3d0468f4	0.032326654
48	0xbdf3e2ac	-0.119084686
49	0x3b0fcbc5	0.0021941524
50	0xbc1473c1	-0.009060801
51	0x3c0593fb	0.008152957
52	0x3d3dcffb	0.046340924
53	0xb7f411a8	-2.9095288e-05
54	0x0000895d	4.9277e-41
55	0x800088da	-4.9093e-41
56	0x800089c4	-4.9421e-41
57	0x800088fe	-4.9144e-41
58	0x800089aa	-4.9385e-41
59	0x00009051	5.1771e-41
60	0x80009196	-5.2226e-41
61	0x800089e3	-4.9464e-41
62	0x00009065	5.1799e-41
63	0xbd490910	-0.04908091
64	0xbd97c54e	-0.0741068
65	0xbdc8c46b	-0.09803089
66	0xbd6c8ce9	-0.05775157
67	0xbc5ead37	-0.013591102
68	0xbd7f4d36	-0.062329493
69	0xbd345ad2	-0.044031925
70	0xbc71b54d	-0.014752698
71	0x3cf80e35	0.030280212
72	0x3d7b045e	0.06128346
73	0x3cb824de	0.022478517
74	0x3cde2e91	0.027121814
75	0x3ccac783	0.024753338
76	0xbd25acf7	-0.040448155
77	0xbc15615b	-0.00911745
78	0x3bb5f951	0.0055534025
79	0xbd060b14	-0.03272541
80	0x3b491b7c	0.0030686548
81	0x3d74c986	0.0597625
82	0x3cd0ce52	0.025489006
83	0x3da5f19a	0.081027225
84	0x3d0d9187	0.034562614
85	0xbc7cb3eb	-0.015423755
86	0x3cea4f5c	0.028602295
87	0xbc9a0b63	-0.018804258
88	0xbdc67634	-0.09690514
89	0xbdbe2aa0	-0.09285474
90	0x3bba22c1	0.0056804125
91	0xbcd8f51e	-0.026484068
92	0xbd116aa0	-0.035502076
93	0x3d438139	0.04773066
94	0xbdb21643	-0.08695652
95	0xbdbfbc86	-0.0936213
96	0xbd631172	-0.05543656
97	0xbcd07387	-0.025445713
98	0xbb6de5c4	-0.003630028
99	0xbd81f933	-0.06346359
100	0x3c46d835	0.012136509
101	0xbd22e718	-0.03977117
102	0x3d0ad6bc	0.033896193
103	0xbd04ec23	-0.03245176
104	0x3cec2582	0.028826479
105	0xbb2bbf08	-0.0026206393
106	0xba939595	-0.0011259789
107	0xbaf9ec0d	-0.0019067541
108	0xbcf5b542	-0.029993657
109	0x3cc20ab8	0.023686752
110	0x3e153915	0.14572556
111	0x3de82391	0.11334909
112	0xbdc2a56a	-0.095042065
113	0xbd05a560	-0.032628417
114	0x3d50cfa8	0.050979286
115	0xbb5ec499	-0.0033991693
116	0xbca8ddeb	-0.020613631
117	0xbd41289b	-0.047157865
118	0x3d583fb5	0.05279513
119	0x3c645a05	0.013937478
120	0xbcc9332c	-0.024560533
121	0xbd32f9f8	-0.04369542
122	0x3c25eb26	0.010126865
123	0xbb51a65f	-0.0031990034
124	0x3cea683e	0.02861416
125	0x3d8db381	0.06919003
126	0xb9d8f7e5	-0.00041383426
127	0xb9da8bdd	-0.00041684406
128	0xb9d4bd87	-0.00040577
129	0xb9dacfc6	-0.00041735003
130	0xb9db362a	-0.0004181129
131	0xb9d48632	-0.00040535774
132	0xb9dae318	-0.00041749398
133	0xb9da1d16	-0.0004160187
134	0xb9d09c78	-0.0003978943
135	0xbd220e9b	-0.03956471
136	0x3d174aa5	0.03693642
137	0x3d012e44	0.031538263
138	0x3c23992c	0.0099852495
139	0xbcbf52e0	-0.023354948
140	0xbbe5a0f7	-0.007007714
141	0xbcf162bd	-0.029466027
142	0xbcd5d964	-0.026104636
143	0x3cc2b6df	0.02376884
144	0x80008ac3	-4.9778e-41
145	0x000092ec	5.2706e-41
146	0x80009269	-5.2522e-41
147	0x800089dd	-4.9456e-41
148	0x00009298	5.2588e-41
149	0x80009289	-5.2567e-41
150	0x00008b78	5.0032e-41
151	0x00008cbb	5.0485e-41
152	0x8000996b	-5.5036e-41
153	0xbe1cfca5	-0.15330751
154	0x3d9c8805	0.07643131
155	0x3d8d4b98	0.06899184
156	0xbcccb86a	-0.02499028
157	0xbd5b8216	-0.053590856
158	0x3c11252e	0.008858962
159	0x3e66760e	0.22505972
160	0xbd232cdf	-0.039837714
161	0x3bb2ba75	0.0054543563
162	0xbcd1d8b1	-0.025616022
163	0xbc46766d	-0.012113196
164	0xbc7f6ff8	-0.01559066
165	0x3d199e35	0.037504394
166	0x3def2b54	0.11678186
167	0xbd2d030c	-0.042239234
168	0x3cd2f3f5	0.025751093
169	0x3d09800d	0.033569384
170	0x3c81e89c	0.015857987
171	0x3c8533c8	0.016260043
172	0xbd03e59c	-0.032201394
173	0x3be9f085	0.007139268
174	0x3c50483c	0.0127125345
175	0xbd16d800	-0.036827087
176	0xbbe88057	-0.0070953774
177	0xbc0d58b8	-0.008627109
178	0xbc43a768	-0.011941768
179	0x3bfd2990	0.007725902
180	0x3e209e83	0.15685467
181	0x3dc1ba2c	0.094593376
182	0x3dd53165	0.10409812
183	0xbbf76a61	-0.007550523
184	0xbd6199b9	-0.055078242
185	0xbd64890c	-0.05579476
186	0x3d0e3256	0.034715973
187	0xbd939e28	-0.072079
188	0x3d4e8618	0.05042085
189	0xbcaf977a	-0.021434534
190	0x3daecd77	0.08535283
191	0x3dcf0363	0.10108068
192	0x3ca19037	0.019722087
193	0xbdc3396d	-0.095324375
194	0x3d171e18	0.036893934
195	0x3cb68613	0.022280728
196	0xbc7efc77	-0.015563122
197	0xbd26ca9e	-0.040720575
198	0xbd29ba64	-0.04143752
199	0x3ca79e9d	0.020461375
200	0xbc934a98	-0.017979905
201	0xbc204ad0	-0.009783462
202	0x3d78a390	0.06070286
203	0xbd05bbd4	-0.03264983
204	0xbcbef57c	-0.023310415
205	0x3d4d354a	0.05009965
206	0x3c09427d	0.008377668
207	0xbd5d9942	-0.054101236
208	0xbd946b26	-0.072469994
209	0x3c2ff086	0.010738498
210	0x3d2c6d98	0.042096704
211	0x3cc6c4cd	0.024263764
212	0x3d62fd5c	0.055417404
213	0xbce8f434	-0.028436758
214	0x3cabdd17	0.020979447
215	0x3d14e16c	0.03634779
216	0xbe414eac	-0.18877667
217	0x3df0f79c	0.11765978
218	0xbdfc5532	-0.12320937
219	0x3ce7f8be	0.028316852
220	0x3ea5b555	0.32364908
221	0x3dcc7a74	0.099842936
222	0x3c890e7d	0.016730541
223	0xbcbae97b	-0.02281641
224	0x3cf3e5dd	0.029772693
225	0x3d7c47a7	0.06159177
226	0xbc46e30e	-0.012139095
227	0x3c380086	0.011230594
228	0x3d752d12	0.059857436
229	0xbd99413f	-0.07483148
230	0x39a09bd9	0.00030633694
231	0xbd942dca	-0.07235296
232	0x3cfe1247	0.031014575
233	0xbe19921e	-0.14997146
234	0xbdabeb59	-0.083944984
235	0xbd32abe6	-0.043620966
236	0xbcf67109	-0.030083196
237	0x3ddb554c	0.107096285
238	0x3da33ad9	0.07970209
239	0xbe0ce517	-0.13759266
240	0x3df42c66	0.11922531
241	0x3e083042	0.13299659
242	0xbc1672ca	-0.009182641
243	0x3c8ad5fa	0.016947735
244	0x3d7cae36	0.061689578
245	0x3d813e57	0.063107185
246	0x3ba13649	0.0049198014
247	0xbd4261a1	-0.047456387
248	0xbcdfb86b	-0.027309617
249	0xbd38430e	-0.044985823
250	0x3b60786a	0.003425146
251	0x3bc8df73	0.006130153
252	0xbcab6058	-0.020919964
253	0xbced4df6	-0.028967839
254	0x36bf85f0	5.707836e-06
255	0xbc82635e	-0.015916523

conv5.bias f4 [32]
0	0xbd50f2b6	-0.051012717
1	0xbc25047e	-0.010071872
2	0x3cfc9163	0.030831045
3	0xbcb4aafa	-0.022054184
4	0xbd96d96c	-0.07365689
5	0x3b240562	0.0025027622
6	0x3d4a8b69	0.049449358
7	0xbd805d10	-0.0626775
8	0x3d2455a8	0.04012075
9	0x3bc479dc	0.005995972
10	0x000089b5	4.94e-41
11	0x3d0e45e1	0.03473461
12	0x00008904	4.9152e-41
13	0x3b95d119	0.0045720455
14	0x3d4a9f4f	0.049468335
15	0x3c651c84	0.013983849
16	0xba72bc10	-0.0009259591
17	0xbca93d8b	-0.020659229
18	0x3c53f21f	0.012936144
19	0x3d018738	0.031623095
20	0x3cd4d6e8	0.025981382
21	0x3cff5869	0.031170087
22	0x3d8624d1	0.06549991
23	0x3d4390eb	0.047745626
24	0x3d490ea0	0.049086213
25	0xbc431251	-0.011906222
26	0xbc106e30	-0.008815333
27	0x3d75abfd	0.059978474
28	0x3b92934d	0.004473126
29	0xbd8abd84	-0.067744285
30	0x3c276ee3	0.010219309
31	0x3cbb55d5	0.022868076

conv6.weight f4 [32, 32, 3, 3]
0	0xbd7361d4	-0.059419468
1	0xbd43d1b0	-0.047807395
2	0xbcb15f9b	-0.021652034
3	0x3ad5a0e5	0.0016298561
4	0x3bdd1ca4	0.006747799
5	0xbccb3554	-0.024805702
6	0x3d723f4b	0.059142392
7	0x3d16aa5c	0.03678356
8	0x3d351f28	0.044219166
9	0x3c25917b	0.010105486
10	0xbc30e983	-0.010797861
11	0xbc6e72b8	-0.014553718
12	0xbb87c677	-0.004143532
13	0xbbb2f43b	-0.0054612434
14	0x3be70b46	0.0070509044
15	0xbb5ab3fc	-0.003337144
16	0xbb87f02c	-0.0041485038
17	0xbc07d923	-0.0082915155
18	0x3d175891	0.036949698
19	0x3d4d80d8	0.050171703
20	0x3d90c166	0.07068138
21	0x3cd52e3a	0.02602302
22	0x3d893ec4	0.06701425
23	0x3d76b2f5	0.06022926
24	0x3c5d6fa8	0.01351539
25	0x3d645eb0	0.055754364
26	0x3d14bd44	0.03631331
27	0x3ce42ba8	0.027852848
28	0x3bcffe60	0.0063474625
29	0x3cc6e88b	0.024280807
30	0xbc83baa9	-0.016080217
31	0xbcf61247	-0.030038012
32	0xbba5fdae	-0.0050656414
33	0x3c8a4529	0.016878681
34	0x3c46998b	0.012121568
35	0xbcbd9021	-0.023140015
36	0xbd86c8b7	-0.06581252
37	0xbc1fb07d	-0.009746668
38	0x3ce08f9d	0.02741223
39	0xbb38d3f9	-0.0028202517
40	0xbd1b2012	-0.03787238
41	0x3bd3027c	0.006439505
42	0xbdbe44a8	-0.09290439
43	0xbd1033e1	-0.035205726
44	0xbd31eed5	-0.04344066
45	0x3a1cf7e5	0.0005987867
46	0x39c54a71	0.0003763023
47	0x3a3fbbcc	0.00073140557
48	0x3989d8ed	0.000262923
49	0x3998d945	0.00029153578
50	0x3a36229f	0.0006947908
51	0xb970b351	-0.00022954984
52	0x3948bf0c	0.00019144657
53	0x3a1b2f2e	0.0005919811
54	0x3b181a8b	0.002320918
55	0x3ca9557d	0.020670647
56	0x3d1a67ea	0.037696756
57	0xbb9034b3	-0.0044008135
58	0x3c1b630a	0.009484062
59	0xbccc6dc9	-0.024954693
60	0xbd278895	-0.04090174
61	0xbc82bcdf	-0.015959201
62	0xbd791634	-0.06081219
63	0xbd80596e	-0.06267057
64	0xbcf789d3	-0.030217087
65	0xbd98be6b	-0.07458194
66	0xbbe4693e	-0.0069705537
67	0xbb6bfc0d	-0.0036008388
68	0xbd0c41cd	-0.03424244
69	0xbd83887f	-0.06422519
70	0xbd7407f8	-0.059577912
71	0xbdbeb647	-0.093121104
72	0x3c8d75e2	0.017268125
73	0xbba6f56b	-0.005095174
74	0x3cb3604f	0.02189651
75	0x3c025417	0.007954619
76	0xbb082d16	-0.0020778826
77	0xbc201832	-0.009771394
78	0xbcc291c2	-0.023751143
79	0xbc45eb1e	-0.012079982
80	0xbcc8f2d2	-0.024529848
81	0x3d368ff7	0.04457089
82	0x3c0876bc	0.00832909
83	0x3c20bc86	0.0098105725
84	0x3c93ed0d	0.01805737
85	0xba03f4f5	-0.0005033755
86	0x3ccad58b	0.024760028
87	0xbc8788e5	-0.016544769
88	0xbbc41d4d	-0.0059849382
89	0x3d1f876c	0.038947508
90	0x000088c3	4.9061e-41
91	0x000089c6	4.9424e-41
92	0x000088d7	4.9089e-41
93	0x000088d9	4.9092e-41
94	0x000088ea	4.9116e-41
95	0x000088e4	4.9107e-41
96	0x000088fb	4.914e-41
97	0x000088c6	4.9065e-41
98	0x000088d3	4.9083e-41
99	0x3d02738b	0.03184847
100	0x3d0c5782	0.03426314
101	0x3b79c690	0.0038112737
102	0x3d64c952	0.055856057
103	0x3d03270f	0.03201967
104	0x3c0fa1d2	0.008766608
105	0x3e00600d	0.1253664
106	0x3d0daced	0.034588743
107	0x3ceefa3f	0.029172061
108	0x800088f4	-4.913e-41
109	0x80008ae8	-4.983e-41
110	0x800088fd	-4.9142e-41
111	0x8000897c	-4.932e-41
112	0x800089bc	-4.941e-41
113	0x80008916	-4.9177e-41
114	0x80008930	-4.9214e-41
115	0x8000895c	-4.9275e-41
116	0x800088bc	-4.9051e-41
117	0x3bd2fae5	0.0064386004
118	0x3c0a414d	0.0084384205
119	0x3bdd1404	0.006746771
120	0xba74debd	-0.0009341052
121	0x3b80850b	0.00392211
122	0xbb16082d	-0.0022893057
123	0xbcd86bcd	-0.02641859
124	0xbcde5584	-0.027140386
125	0xbce79016	-0.028266948
126	0x3d10eaa3	0.035380017
127	0x3cded740	0.027202249
128	0x3d5dc238	0.0541403
129	0x39d2c98a	0.0004020448
130	0x3a756135	0.0009360493
131	0x3c3dc158	0.011581741
132	0xbd2797a2	-0.040916093
133	0xbd3bd2e8	-0.045855433
134	0xbd7db296	-0.06193789
135	0x3bc1370f	0.005896456
136	0xbc642cc0	-0.013926685
137	0x3c177623	0.009244475
138	0xbda19067	-0.07888871
139	0xbdf291c7	-0.11844211
140	0xbdabeaf8	-0.08394426
141	0xbd158370	-0.0365023
142	0xbd4df64f	-0.050283726
143	0x3ce4ff1c	0.027953677
144	0xbbb1cace	-0.0054257875
145	0x3ae9eea4	0.001784761
146	0xbc81b3d1	-0.015832813
147	0x3aeaafe3	0.0017905202
148	0x3c1cfb0b	0.009581338
149	0xbc2fa34e	-0.010720087
150	0x3ca0846a	0.01959439
151	0x3c2ada38	0.010428004
152	0x3b5ec083	0.0033989258
153	0xbd2af41c	-0.041736707
154	0xbc05a1ff	-0.008156299
155	0x3c9e6510	0.0193353
156	0xbb58096c	-0.00329646
157	0x3bef39cf	0.0073005925
158	0x3d012f2a	0.03153912
159	0x3d5b7d44	0.05358626
160	0x3c5b1b77	0.013373247
161	0x3d249b49	0.040187154
162	0x3b16c14d	0.00230034
163	0x3c5e210a	0.013557682
164	0x3c212115	0.0098345475
165	0xbb2ce28a	-0.0026380145
166	0x3ccb793b	0.02483808
167	0x3cc3b695	0.023890773
168	0x3c5ff96a	0.013670305
169	0x3d3d4683	0.046209823
170	0x3cc8d451	0.024515303
171	0xbd5c1c9c	-0.05373822
172	0xbcfa7aa6	-0.030576061
173	0xbd1542e0	-0.03644073
174	0xbd275d69	-0.040860567
175	0xbd0472e2	-0.032336123
176	0xbcecaaf4	-0.02889011
177	0xbcc8fcb0	-0.024534553
178	0xbd3d2777	-0.046180215
179	0xbd058943	-0.032601606
180	0xbc909a9c	-0.017651848
181	0x3d9e6226	0.07733564
182	0xbd3b679c	-0.045753106
183	0x3d9f749d	0.07785914
184	0xbd8b8cf5	-0.06813995
185	0xbceb46fe	-0.028720375
186	0x3c28f17b	0.01031148
187	0xbdc803d0	-0.09766352
188	0x3c997fd2	0.018737707
189	0xbd0608ca	-0.032723226
190	0xbc8378b4	-0.016048767
191	0xbd0bdf97	-0.03414878
192	0xbd03aa10	-0.032144606
193	0x3c455cb4	0.012046028
194	0x3ae4eb62	0.0017465169
195	0xbda9f463	-0.08298566
196	0xbd6f0376	-0.05835291
197	0xbda7a5d8	-0.08185929
198	0xbd30afb5	-0.043136317
199	0x3d515129	0.05110279
200	0xbae7c455	-0.0017682413
201	0x3c993fc2	0.01870716
202	0x3ce59a8a	0.028027792
203	0x3b5f61bd	0.0034085356
204	0x3c14848d	0.009064806
205	0xbd27d399	-0.04097328
206	0x3c0e19d8	0.008673154
207	0xbd688cda	-0.05677495
208	0xbd42dd16	-0.047574125
209	0xbccf044e	-0.025270607
210	0xbc1fc89b	-0.009752418
211	0xbcec01b4	-0.028809406
212	0xbcd00d70	-0.025397032
213	0xbcc758ed	-0.024334395
214	0xbd61a517	-0.055089083
215	0xbcdb39c5	-0.026760945
216	0x3cc120b4	0.023575164
217	0xbcf76242	-0.03019822
218	0xbc994fbb	-0.018714776
219	0xbc929ac3	-0.017896062
220	0xbcb56445	-0.022142539
221	0x3d1b45c8	0.037908345
222	0xbd24a4f2	-0.040196367
223	0x3cb34647	0.021884097
224	0x3d4adf9f	0.049529668
225	0xbc05351a	-0.008130336
226	0xbcdfcb1e	-0.027318534
227	0xbcc2f438	-0.023798093
228	0xbc243c73	-0.010024178
229	0xbbc1ab00	-0.0059102774
230	0xbcc8241b	-0.024431279
231	0xbc6372f0	-0.013882384
232	0xbcf80084	-0.030273683
233	0xbcdefc98	-0.027220055
234	0xbbe4a508	-0.006977681
235	0x3da17a28	0.078846276
236	0x3cf5522e	0.029946413
237	0x3cfc3c66	0.030790519
238	0x3d4f234a	0.050570764
239	0x3d3ae2e7	0.045626547
240	0x3ca8f938	0.02062665
241	0x3d02ce1e	0.03193485
242	0xbc3b65ae	-0.011437817
243	0x3ce9ff9e	0.02856427
244	0x3cd4a364	0.025956817
245	0x3ce7bd03	0.02828837
246	0x3b96e4a4	0.004604893
247	0x3b955ec1	0.0045584147
248	0x3c0745ed	0.008256418
249	0xbc8d2077	-0.017227395
250	0xbc0d6252	-0.008629398
251	0xbc7d9cd5	-0.015479286
252	0xba947ee5	-0.0011329321
253	0xbc0398d2	-0.008032041
254	0xbabbe7ed	-0.0014336087
255	0xbd778abb	-0.060435038

conv6.bias f4 [32]
0	0x3c6fa865	0.014627551
1	0x3d3fbbbc	0.046809897
2	0xbccadf9d	-0.02476483
3	0x3da325bd	0.079661824
4	0x3b4ae676	0.003096012
5	0x3aace767	0.0013191522
6	0xb8a25bff	-7.7418976e-05
7	0x3d7803c8	0.06055048
8	0x3d5d723f	0.05406403
9	0x3cc58295	0.024110118
10	0x00008954	4.9264e-41
11	0x3c18eda8	0.009334005
12	0xb956b6ff	-0.00020476802
13	0x80008908	-4.9158e-41
14	0x3c62fa50	0.013853624
15	0x000089a6	4.9379e-41
16	0x3cf1d141	0.029518725
17	0x3d61fa1f	0.055170175
18	0x3ccc1787	0.024913562
19	0x3c3bbb1d	0.0114581855
20	0x000089ca	4.943e-41
21	0xbccc83ba	-0.024965156
22	0x3d93c5ae	0.07215439
23	0xbd1caf3d	-0.038253058
24	0x3ba129d9	0.0049183187
25	0x3d9b5e92	0.07586397
26	0x3da49a2b	0.08037218
27	0xbaae091f	-0.0013277865
28	0xbb9c0c56	-0.0047622127
29	0x3cca0fa4	0.024665661
30	0x3d901340	0.07034922
31	0xbc8b970c	-0.017039798
